…
21-08-14 02:52:40.374 - INFO: Dataset [LQGTVIDDataset - selfc_yachtride] is created.
21-08-14 02:52:40.374 - INFO: Number of test images in [selfc_yachtride]: 6
21-08-14 02:52:47.825 - INFO: Network G structure: DataParallel - SelfCInvNet, with parameters: 885,524
21-08-14 02:52:47.825 - INFO: SelfCInvNet(
  (operations): ModuleList(
    (0): FrequencyAnalyzer(
      (bicubic_down): Upsample(scale_factor=(0.5, 0.5), mode=area)
      (pixel_unshuffle): PixelUnshuffle()
      (bicubic_up): Upsample(scale_factor=(2.0, 2.0), mode=area)
      (pixel_shuffle): PixelShuffle(upscale_factor=2)
    )
    (1): InvBlockExp(
      (F): D2DTInput(
        (conv1): Conv3d(12, 32, kernel_size=(1, 3, 3), stride=(1, 1, 1), padding=(0, 1, 1))
        (conv2): Conv3d(44, 32, kernel_size=(1, 3, 3), stride=(1, 1, 1), padding=(0, 1, 1))
        (conv3): Conv3d(76, 32, kernel_size=(1, 3, 3), stride=(1, 1, 1), padding=(0, 1, 1))
        (conv4): Conv3d(108, 32, kernel_size=(1, 3, 3), stride=(1, 1, 1), padding=(0, 1, 1))
        (conv5): Conv3d(140, 3, kernel_size=(3, 1, 1), stride=(1, 1, 1), padding=(1, 0, 0))
        (lrelu): LeakyReLU(negative_slope=0.2, inplace=True)
      )
      (G): D2DTInput(
        (conv1): Conv3d(3, 32, kernel_size=(1, 3, 3), stride=(1, 1, 1), padding=(0, 1, 1))
        (conv2): Conv3d(35, 32, kernel_size=(1, 3, 3), stride=(1, 1, 1), padding=(0, 1, 1))
        (conv3): Conv3d(67, 32, kernel_size=(1, 3, 3), stride=(1, 1, 1), padding=(0, 1, 1))
        (conv4): Conv3d(99, 32, kernel_size=(1, 3, 3), stride=(1, 1, 1), padding=(0, 1, 1))
        (conv5): Conv3d(131, 12, kernel_size=(3, 1, 1), stride=(1, 1, 1), padding=(1, 0, 0))
        (lrelu): LeakyReLU(negative_slope=0.2, inplace=True)
      )
      (H): D2DTInput(
        (conv1): Conv3d(3, 32, kernel_size=(1, 3, 3), stride=(1, 1, 1), padding=(0, 1, 1))
        (conv2): Conv3d(35, 32, kernel_size=(1, 3, 3), stride=(1, 1, 1), padding=(0, 1, 1))
        (conv3): Conv3d(67, 32, kernel_size=(1, 3, 3), stride=(1, 1, 1), padding=(0, 1, 1))
        (conv4): Conv3d(99, 32, kernel_size=(1, 3, 3), stride=(1, 1, 1), padding=(0, 1, 1))
        (conv5): Conv3d(131, 12, kernel_size=(3, 1, 1), stride=(1, 1, 1), padding=(1, 0, 0))
        (lrelu): LeakyReLU(negative_slope=0.2, inplace=True)
      )
    )
    (2): InvBlockExp(
      (F): D2DTInput(
        (conv1): Conv3d(12, 32, kernel_size=(1, 3, 3), stride=(1, 1, 1), padding=(0, 1, 1))
        (conv2): Conv3d(44, 32, kernel_size=(1, 3, 3), stride=(1, 1, 1), padding=(0, 1, 1))
        (conv3): Conv3d(76, 32, kernel_size=(1, 3, 3), stride=(1, 1, 1), padding=(0, 1, 1))
        (conv4): Conv3d(108, 32, kernel_size=(1, 3, 3), stride=(1, 1, 1), padding=(0, 1, 1))
        (conv5): Conv3d(140, 3, kernel_size=(3, 1, 1), stride=(1, 1, 1), padding=(1, 0, 0))
        (lrelu): LeakyReLU(negative_slope=0.2, inplace=True)
      )
      (G): D2DTInput(
        (conv1): Conv3d(3, 32, kernel_size=(1, 3, 3), stride=(1, 1, 1), padding=(0, 1, 1))
        (conv2): Conv3d(35, 32, kernel_size=(1, 3, 3), stride=(1, 1, 1), padding=(0, 1, 1))
        (conv3): Conv3d(67, 32, kernel_size=(1, 3, 3), stride=(1, 1, 1), padding=(0, 1, 1))
        (conv4): Conv3d(99, 32, kernel_size=(1, 3, 3), stride=(1, 1, 1), padding=(0, 1, 1))
        (conv5): Conv3d(131, 12, kernel_size=(3, 1, 1), stride=(1, 1, 1), padding=(1, 0, 0))
        (lrelu): LeakyReLU(negative_slope=0.2, inplace=True)
      )
      (H): D2DTInput(
        (conv1): Conv3d(3, 32, kernel_size=(1, 3, 3), stride=(1, 1, 1), padding=(0, 1, 1))
        (conv2): Conv3d(35, 32, kernel_size=(1, 3, 3), stride=(1, 1, 1), padding=(0, 1, 1))
        (conv3): Conv3d(67, 32, kernel_size=(1, 3, 3), stride=(1, 1, 1), padding=(0, 1, 1))
        (conv4): Conv3d(99, 32, kernel_size=(1, 3, 3), stride=(1, 1, 1), padding=(0, 1, 1))
        (conv5): Conv3d(131, 12, kernel_size=(3, 1, 1), stride=(1, 1, 1), padding=(1, 0, 0))
        (lrelu): LeakyReLU(negative_slope=0.2, inplace=True)
      )
    )
    (3): InvBlockExp(
      (F): D2DTInput(
        (conv1): Conv3d(12, 32, kernel_size=(1, 3, 3), stride=(1, 1, 1), padding=(0, 1, 1))
        (conv2): Conv3d(44, 32, kernel_size=(1, 3, 3), stride=(1, 1, 1), padding=(0, 1, 1))
        (conv3): Conv3d(76, 32, kernel_size=(1, 3, 3), stride=(1, 1, 1), padding=(0, 1, 1))
        (conv4): Conv3d(108, 32, kernel_size=(1, 3, 3), stride=(1, 1, 1), padding=(0, 1, 1))
        (conv5): Conv3d(140, 3, kernel_size=(3, 1, 1), stride=(1, 1, 1), padding=(1, 0, 0))
        (lrelu): LeakyReLU(negative_slope=0.2, inplace=True)
      )
      (G): D2DTInput(
        (conv1): Conv3d(3, 32, kernel_size=(1, 3, 3), stride=(1, 1, 1), padding=(0, 1, 1))
        (conv2): Conv3d(35, 32, kernel_size=(1, 3, 3), stride=(1, 1, 1), padding=(0, 1, 1))
        (conv3): Conv3d(67, 32, kernel_size=(1, 3, 3), stride=(1, 1, 1), padding=(0, 1, 1))
        (conv4): Conv3d(99, 32, kernel_size=(1, 3, 3), stride=(1, 1, 1), padding=(0, 1, 1))
        (conv5): Conv3d(131, 12, kernel_size=(3, 1, 1), stride=(1, 1, 1), padding=(1, 0, 0))
        (lrelu): LeakyReLU(negative_slope=0.2, inplace=True)
      )
      (H): D2DTInput(
        (conv1): Conv3d(3, 32, kernel_size=(1, 3, 3), stride=(1, 1, 1), padding=(0, 1, 1))
        (conv2): Conv3d(35, 32, kernel_size=(1, 3, 3), stride=(1, 1, 1), padding=(0, 1, 1))
        (conv3): Conv3d(67, 32, kernel_size=(1, 3, 3), stride=(1, 1, 1), padding=(0, 1, 1))
        (conv4): Conv3d(99, 32, kernel_size=(1, 3, 3), stride=(1, 1, 1), padding=(0, 1, 1))
        (conv5): Conv3d(131, 12, kernel_size=(3, 1, 1), stride=(1, 1, 1), padding=(1, 0, 0))
        (lrelu): LeakyReLU(negative_slope=0.2, inplace=True)
      )
    )
    (4): InvBlockExp(
      (F): D2DTInput(
        (conv1): Conv3d(12, 32, kernel_size=(1, 3, 3), stride=(1, 1, 1), padding=(0, 1, 1))
        (conv2): Conv3d(44, 32, kernel_size=(1, 3, 3), stride=(1, 1, 1), padding=(0, 1, 1))
        (conv3): Conv3d(76, 32, kernel_size=(1, 3, 3), stride=(1, 1, 1), padding=(0, 1, 1))
        (conv4): Conv3d(108, 32, kernel_size=(1, 3, 3), stride=(1, 1, 1), padding=(0, 1, 1))
        (conv5): Conv3d(140, 3, kernel_size=(3, 1, 1), stride=(1, 1, 1), padding=(1, 0, 0))
        (lrelu): LeakyReLU(negative_slope=0.2, inplace=True)
      )
      (G): D2DTInput(
        (conv1): Conv3d(3, 32, kernel_size=(1, 3, 3), stride=(1, 1, 1), padding=(0, 1, 1))
        (conv2): Conv3d(35, 32, kernel_size=(1, 3, 3), stride=(1, 1, 1), padding=(0, 1, 1))
        (conv3): Conv3d(67, 32, kernel_size=(1, 3, 3), stride=(1, 1, 1), padding=(0, 1, 1))
        (conv4): Conv3d(99, 32, kernel_size=(1, 3, 3), stride=(1, 1, 1), padding=(0, 1, 1))
        (conv5): Conv3d(131, 12, kernel_size=(3, 1, 1), stride=(1, 1, 1), padding=(1, 0, 0))
        (lrelu): LeakyReLU(negative_slope=0.2, inplace=True)
      )
      (H): D2DTInput(
        (conv1): Conv3d(3, 32, kernel_size=(1, 3, 3), stride=(1, 1, 1), padding=(0, 1, 1))
        (conv2): Conv3d(35, 32, kernel_size=(1, 3, 3), stride=(1, 1, 1), padding=(0, 1, 1))
        (conv3): Conv3d(67, 32, kernel_size=(1, 3, 3), stride=(1, 1, 1), padding=(0, 1, 1))
        (conv4): Conv3d(99, 32, kernel_size=(1, 3, 3), stride=(1, 1, 1), padding=(0, 1, 1))
        (conv5): Conv3d(131, 12, kernel_size=(3, 1, 1), stride=(1, 1, 1), padding=(1, 0, 0))
        (lrelu): LeakyReLU(negative_slope=0.2, inplace=True)
      )
    )
  )
  (stp_net): STPNet(
    (local_m1): D2DTInput(
      (conv1): Conv3d(3, 12, kernel_size=(1, 3, 3), stride=(1, 1, 1), padding=(0, 1, 1))
      (conv2): Conv3d(15, 12, kernel_size=(1, 3, 3), stride=(1, 1, 1), padding=(0, 1, 1))
      (conv3): Conv3d(27, 12, kernel_size=(1, 3, 3), stride=(1, 1, 1), padding=(0, 1, 1))
      (conv4): Conv3d(39, 12, kernel_size=(1, 3, 3), stride=(1, 1, 1), padding=(0, 1, 1))
      (conv5): Conv3d(51, 24, kernel_size=(3, 1, 1), stride=(1, 1, 1), padding=(1, 0, 0))
      (lrelu): LeakyReLU(negative_slope=0.2, inplace=True)
    )
    (local_m2): D2DTInput(
      (conv1): Conv3d(24, 12, kernel_size=(1, 3, 3), stride=(1, 1, 1), padding=(0, 1, 1))
      (conv2): Conv3d(36, 12, kernel_size=(1, 3, 3), stride=(1, 1, 1), padding=(0, 1, 1))
      (conv3): Conv3d(48, 12, kernel_size=(1, 3, 3), stride=(1, 1, 1), padding=(0, 1, 1))
      (conv4): Conv3d(60, 12, kernel_size=(1, 3, 3), stride=(1, 1, 1), padding=(0, 1, 1))
      (conv5): Conv3d(72, 24, kernel_size=(3, 1, 1), stride=(1, 1, 1), padding=(1, 0, 0))
      (lrelu): LeakyReLU(negative_slope=0.2, inplace=True)
    )
    (global_m1): GlobalAgg(
      (fc): Linear(in_features=1024, out_features=1, bias=True)
      (proj1): Conv2d(24, 24, kernel_size=(1, 1), stride=(1, 1))
      (proj2): Linear(in_features=24, out_features=24, bias=True)
      (proj3): Linear(in_features=24, out_features=24, bias=True)
    )
    (global_m2): GlobalAgg(
      (fc): Linear(in_features=1024, out_features=1, bias=True)
      (proj1): Conv2d(24, 24, kernel_size=(1, 1), stride=(1, 1))
      (proj2): Linear(in_features=24, out_features=24, bias=True)
      (proj3): Linear(in_features=24, out_features=24, bias=True)
    )
    (other_stp_modules): Sequential(
      (0): D2DTInput(
        (conv1): Conv3d(24, 12, kernel_size=(1, 3, 3), stride=(1, 1, 1), padding=(0, 1, 1))
        (conv2): Conv3d(36, 12, kernel_size=(1, 3, 3), stride=(1, 1, 1), padding=(0, 1, 1))
        (conv3): Conv3d(48, 12, kernel_size=(1, 3, 3), stride=(1, 1, 1), padding=(0, 1, 1))
        (conv4): Conv3d(60, 12, kernel_size=(1, 3, 3), stride=(1, 1, 1), padding=(0, 1, 1))
        (conv5): Conv3d(72, 24, kernel_size=(3, 1, 1), stride=(1, 1, 1), padding=(1, 0, 0))
        (lrelu): LeakyReLU(negative_slope=0.2, inplace=True)
      )
      (1): GlobalAgg(
        (fc): Linear(in_features=1024, out_features=1, bias=True)
        (proj1): Conv2d(24, 24, kernel_size=(1, 1), stride=(1, 1))
        (proj2): Linear(in_features=24, out_features=24, bias=True)
        (proj3): Linear(in_features=24, out_features=24, bias=True)
      )
      (2): D2DTInput(
        (conv1): Conv3d(24, 12, kernel_size=(1, 3, 3), stride=(1, 1, 1), padding=(0, 1, 1))
        (conv2): Conv3d(36, 12, kernel_size=(1, 3, 3), stride=(1, 1, 1), padding=(0, 1, 1))
        (conv3): Conv3d(48, 12, kernel_size=(1, 3, 3), stride=(1, 1, 1), padding=(0, 1, 1))
        (conv4): Conv3d(60, 12, kernel_size=(1, 3, 3), stride=(1, 1, 1), padding=(0, 1, 1))
        (conv5): Conv3d(72, 24, kernel_size=(3, 1, 1), stride=(1, 1, 1), padding=(1, 0, 0))
        (lrelu): LeakyReLU(negative_slope=0.2, inplace=True)
      )
      (3): GlobalAgg(
        (fc): Linear(in_features=1024, out_features=1, bias=True)
        (proj1): Conv2d(24, 24, kernel_size=(1, 1), stride=(1, 1))
        (proj2): Linear(in_features=24, out_features=24, bias=True)
        (proj3): Linear(in_features=24, out_features=24, bias=True)
      )
    )
    (tail): Sequential(
      (0): LeakyReLU(negative_slope=0.2, inplace=True)
      (1): Conv3d(24, 12, kernel_size=(1, 1, 1), stride=(1, 1, 1))
    )
  )
  (Quantization): Quantization()
)
21-08-14 02:52:47.826 - INFO: Loading model for G [/data_video/code/SelfC/selfc_framework/experiments/train_h265_suggrogate_q16_01_noclos_decay/models/300000_G.pth] ...
21-08-14 02:52:47.919 - INFO: Model [SelfCModel] is created.
21-08-14 02:52:47.920 - INFO: 
Testing [selfc_beauty]...
21-08-14 02:54:22.038 - INFO: selfc_beauty_0_im1.png - video_distor_loss: 0.000000; video_bpp: 0.000000 dB; mimick_loss: 0.000000; img_bpp: 0.307862 dB.
…
